simple_nn.pth (torch, 440156 bytes, 6 tensors)

fc1.weight f4 [128, 784]
0	0x3cb2cfe6	0.02182765
1	0xbcdf5243	-0.027260905
2	0x3cf45fc8	0.029830828
3	0xbc76637e	-0.015038369
4	0xbcb9ed3c	-0.02269613
5	0xbcaaafa3	-0.020835703
6	0xbbd85158	-0.006601494
7	0xba952de8	-0.0011381479
8	0x3c81d14d	0.015846873
9	0xbacb0b77	-0.0015491088
10	0x3cdc8332	0.026918028
11	0xbccea671	-0.02522585
12	0x3c5c21d2	0.013435798
13	0x3cad0393	0.021119868
14	0x3c990b26	0.018682074
15	0x3cee41b0	0.029084057
16	0xbcdc4f01	-0.02689314
17	0x3d009628	0.0313932
18	0x3cd33c16	0.025785487
19	0xbc315427	-0.010823286
20	0x3d1af4ba	0.037831046
21	0xbbebb1fc	-0.0071928483
22	0x3cfd3a70	0.030911654
23	0xbc76a8fe	-0.015054939
24	0xbcb94848	-0.022617474
25	0xba04e126	-0.000506895
26	0xbc6c83c9	-0.014435717
27	0x3d2daf52	0.042403527
28	0x3cbe2d8e	0.023215082
29	0xbc2854e1	-0.010274143
30	0xbc449d18	-0.012000345
31	0x3c6f4852	0.014604645
32	0x3c12fa26	0.008970773
33	0x3c81c3e3	0.015840476
34	0xbbe35469	-0.0069375527
35	0xbc8494b3	-0.016184187
36	0x3ca9186f	0.020641534
37	0xbcafef46	-0.0214764
38	0xbce31632	-0.027720544
39	0x3c2cad19	0.010539317
40	0x3c6f9096	0.014621874
41	0x3d1af6ac	0.0378329
42	0x3d0034c2	0.031300314
43	0x3ca2745c	0.019830875
44	0x3cf690e2	0.030098382
45	0xbacd0ee7	-0.00156447
46	0x3ccc0cf0	0.024908513
47	0xbcc3272a	-0.023822386
48	0xbbe6bc05	-0.0070414566
49	0xbc44e3e0	-0.01201722
50	0x3c69152e	0.014226241
51	0x3cd886c0	0.026431441
52	0x3c0fef5b	0.008785094
53	0x3ba5f272	0.005064302
54	0x3ccbf3f4	0.0248966
55	0x3d11978e	0.035544924
56	0xbc494ffc	-0.012287136
57	0x3d12e58b	0.03586344
58	0x3ce10ebe	0.02747285
59	0x3c104cc7	0.008807368
60	0x3d117dcc	0.03552036
61	0xbbd6b60c	-0.0065524634
62	0x3d1f82a8	0.038942963
63	0xbae775c9	-0.0017659004
64	0x3d010393	0.03149755
65	0x3d05970c	0.032614753
66	0x3c134080	0.008987546
67	0x3c224ee9	0.009906509
68	0xbc95f154	-0.01830355
69	0xbc5abf0e	-0.013351215
70	0x3d2b3136	0.041794978
71	0x3c830d73	0.015997624
72	0x3c531622	0.012883695
73	0x3d194d45	0.037427206
74	0xbc36ef4f	-0.011165454
75	0xbc205272	-0.0097852815
76	0xb915bd6e	-0.00014280315
77	0x3cdd7cf4	0.027037121
78	0x3cccb6ce	0.024989512
79	0x3c25eca1	0.0101272175
80	0x3b8b11ac	0.00424405
81	0x3ce4461e	0.027865466
82	0xbbc08728	-0.005875487
83	0x3ca05e64	0.019576259
84	0xbcca3ae2	-0.02468628
85	0x3c99a756	0.01875655
86	0xbcb35fb1	-0.021896215
87	0xbb84ef0a	-0.004056816
88	0xbbe66e99	-0.0070322272
89	0x3c51bc8a	0.012801299
90	0xbcbf58b2	-0.023357723
91	0xbbb5d356	-0.005548875
92	0xbcc1ac0e	-0.023641612
93	0x3d082a21	0.033243302
94	0x3c698fa4	0.014255438
95	0xbbb4651d	-0.0055052177
96	0xbcb9d4d5	-0.022684494
97	0x3c1ccecb	0.009570788
98	0x3d1ce3ec	0.0383033
99	0xbcd12fd4	-0.025535502
100	0x3cbf4364	0.023347564
101	0xbc919dcc	-0.017775439
102	0x3bfa802c	0.007644674
103	0xbcae2269	-0.021256642
104	0x3cf63ede	0.030059274
105	0x3d27b522	0.040944226
106	0x3c10b7ab	0.008832852
107	0x3d1fb9ec	0.03899567
108	0x3c9ca99e	0.019123849
109	0xbccb1984	-0.02479244
110	0x3d23b8a6	0.039971016
111	0x3cafc7de	0.021457609
112	0x3d052a4e	0.032511048
113	0x3d2938e4	0.04131402
114	0xbc85e44e	-0.016344216
115	0xbbf874d0	-0.0075822845
116	0xbcce9657	-0.025218172
117	0xbc811b0a	-0.015759964
118	0x3d12397f	0.035699364
119	0x3d1dab4a	0.038493432
120	0x3c94e7b9	0.0181769
121	0xbb4ef2cf	-0.003157783
122	0xbb4fa54b	-0.0031684216
123	0xbc5ee128	-0.013603486
124	0x3c5e1754	0.013555367
125	0x3b31683c	0.0027070185
126	0x3ca2a573	0.019854283
127	0x3c6fd9b6	0.014639309
128	0xbc604a7c	-0.013689633
129	0xbcedf8ae	-0.029049244
130	0x3c65bf56	0.014022669
131	0x3d050f91	0.03248555
132	0x3d1eefaa	0.03880278
133	0x3d2af59f	0.04173815
134	0x3c8c21ae	0.017105903
135	0xbcc95b24	-0.024579592
136	0xbb93481f	-0.0044946815
137	0x3d125ea0	0.035734773
138	0xbc0c1f60	-0.008552402
139	0xbccfd2f1	-0.02536914
140	0x3b4d3c49	0.003131645
141	0x3b90df54	0.004421154
142	0xbc852e9a	-0.016257573
143	0xbb22717e	-0.0024786885
144	0x3d106ae4	0.03525819
145	0x3d26c0c5	0.040711183
146	0x3cf5dd43	0.030012732
147	0x3ca1b79d	0.019740874
148	0xbcb9e7f1	-0.022693606
149	0xbc8633bb	-0.016382089
150	0x3c886d35	0.016653636
151	0xbc4fa377	-0.01267325
152	0xbbdeadd4	-0.0067956243
153	0xbcfcd5bc	-0.030863635
154	0x3c916a3c	0.017750852
155	0x3d0b8c10	0.03406912
156	0x3d017b40	0.03161168
157	0x3cbb1a44	0.022839673
158	0x3cb2dbe7	0.021833373
159	0x3cd6f2dc	0.026238851
160	0x3d07469f	0.033026334
161	0x3cf77fc2	0.030212287
162	0x3d19ebee	0.037578516
163	0x3c6578ff	0.0140058985
164	0xbc73170b	-0.014837037
165	0xbca560ce	-0.020187762
166	0xbc0431a0	-0.008068472
167	0xbbb7de83	-0.0056112423
168	0xba3924a4	-0.000706265
169	0xbb9b7f3a	-0.004745391
170	0xbb1d70de	-0.0024023573
171	0xbc162171	-0.0091632465
172	0x3cc18042	0.023620728
173	0x3b9c4be7	0.0047697905
174	0xbcb56229	-0.022141533
175	0xbb6aeb69	-0.0035845882
176	0xbbf3f052	-0.00744442
177	0xbca31f92	-0.019912515
178	0xbbe163cc	-0.006878352
179	0xbd0cb3ae	-0.034351043
180	0xbc9c933d	-0.019113177
181	0x3cd96435	0.02653704
182	0xbc7d956d	-0.01547752
183	0xbc9e25d3	-0.019305145
184	0xbc636fc0	-0.013881624
185	0xbcdd25ac	-0.026995502
186	0x3d1156ad	0.03548305
187	0xbc9a4040	-0.018829465
188	0x3cd69422	0.026193682
189	0xbbedbd20	-0.0072552115
190	0x3c3c35bc	0.011487421
191	0xbcded75b	-0.027202299
192	0x3bf282a8	0.0074008293
193	0x3cafb025	0.021446297
194	0x3aeaffaf	0.0017928983
195	0xbca22aac	-0.019795738
196	0x3ceaa288	0.028641954
197	0x3d2a0217	0.0415059
198	0x3d2ee7f7	0.042701688
199	0x3d012dde	0.031537883
200	0xbba7773f	-0.005110651
201	0x3bd9a482	0.0066419253
202	0x3c054c34	0.008135844
203	0xbb7c5c09	-0.0038507006
204	0x3ce70ff4	0.02820585
205	0xbcc6514c	-0.024208687
206	0xbc60061c	-0.013673332
207	0x3d0b9396	0.034076296
208	0x3cda3330	0.026635736
209	0xb9c95c9e	-0.00038406713
210	0x3d014c94	0.03156717
211	0x3c7042c4	0.014664356
212	0xbb51377f	-0.0031923947
213	0x3d20a752	0.03922207
214	0x3cbe9206	0.023262989
215	0x3c71da80	0.014761567
216	0x3ca17e1e	0.019713458
217	0x3c009fed	0.007850629
218	0xbbc79f39	-0.006091979
219	0x3ccc7f56	0.024963062
220	0x3c912956	0.017719906
221	0xbab6744b	-0.0013920156
222	0x3c659566	0.01401267
223	0xbcc50d4a	-0.024054188
224	0xbc11febf	-0.008910834
225	0xbc0443c9	-0.008072802
226	0xbb436258	-0.0029813256
227	0x3c734727	0.014848507
228	0xbc800574	-0.0156276
229	0x3bba6ada	0.005689007
230	0x3c60bd49	0.013717004
231	0x3c85b390	0.016320974
232	0xbc18f514	-0.009335775
233	0xbcbf4fa5	-0.023353407
234	0x3cc85fcf	0.024459748
235	0x3bc2b217	0.00594164
236	0x3cfb1a73	0.03065226
237	0xbb0a9bbe	-0.0021149958
238	0x3cb4a937	0.022053344
239	0x3c2a21b6	0.010384014
240	0xbc9ae7c9	-0.018909352
241	0xbc06151d	-0.008183745
242	0xbc1b5844	-0.009481493
243	0xbcaa1628	-0.020762518
244	0xbbb10816	-0.0054025752
245	0x3b28c6ae	0.0025753188
246	0x3cc27f70	0.023742408
247	0xbc8cca20	-0.017186224
248	0x3c03ac6e	0.008036716
249	0x3ad9b728	0.0016610371
250	0xbcd81bd5	-0.026380459
251	0x3a678bff	0.0008832812
252	0xbccc8511	-0.024965795
253	0x3d2604d0	0.040531933
254	0x3c99ad0a	0.01875927
255	0x3cbb44c5	0.02285994

fc1.bias f4 [128]
0	0xbd06d375	-0.032916505
1	0x3b990a9d	0.0046704547
2	0x3c829d56	0.015944164
3	0xbbee99eb	-0.007281532
4	0x3c759a8d	0.014990461
5	0xbc4d2d36	-0.012522986
6	0xbc6ca85a	-0.014444435
7	0xbc0f3576	-0.008740773
8	0xbb6ab496	-0.0035813204
9	0xbbb78ac7	-0.0056012603
10	0x3c1858d1	0.009298519
11	0x3cc4bedb	0.024016788
12	0x3c921893	0.017833984
13	0xba78b66a	-0.0009487631
14	0xbcc341ff	-0.02383518
15	0x3d07b99c	0.033135995
16	0xbc55a779	-0.013040417
17	0xbbf6f215	-0.0075361826
18	0xbcf7ac68	-0.030233577
19	0x3d0d6485	0.03451969
20	0x3c307986	0.010771161
21	0x3c0a293e	0.0084326845
22	0xbc860d14	-0.016363658
23	0xbcbf0fb3	-0.023322916
24	0x3cebb932	0.028774831
25	0xbcfd6488	-0.030931726
26	0x3c9b89aa	0.018986542
27	0x3d202140	0.03909421
28	0x3be381c9	0.006942962
29	0x3c78f611	0.015195386
30	0xbcdc560c	-0.0268965
31	0x3ca1e19b	0.019760897
32	0xbae196d6	-0.001721109
33	0x3d0528a8	0.032509476
34	0x3cae60f4	0.021286465
35	0xbce18d87	-0.027533306
36	0xbbcddeda	-0.0062826695
37	0x3cd4735c	0.025933914
38	0xbcfec669	-0.031100469
39	0xbd0e7133	-0.034775924
40	0x3ce53f93	0.027984416
41	0x3d180571	0.037114564
42	0x3c0c8ad5	0.008578022
43	0xbc367889	-0.011137136
44	0xbd26665d	-0.040624965
45	0xbb991f9b	-0.004672957
46	0x3d2a52b7	0.04158279
47	0xbb50eac4	-0.0031878212
48	0xbcce65e9	-0.025195079
49	0xbc4b1a0d	-0.012396348
50	0x3a63658c	0.00086744945
51	0xbc3a5647	-0.011373109
52	0xbc086818	-0.008325599
53	0xbc9efd3d	-0.019407863
54	0x3c4cf5d5	0.012509783
55	0xbcd61462	-0.026132766
56	0x3ccf0ed7	0.02527563
57	0xbc5d8142	-0.013519587
58	0xbc012b9c	-0.007883932
59	0xbc881e68	-0.016616061
60	0x3c46cb32	0.0121334065
61	0xbd1e6690	-0.03867203
62	0xbc8afd9a	-0.01696663
63	0xbd14af05	-0.036299724
64	0xbcabd417	-0.020975156
65	0xbbefed78	-0.0073220097
66	0x3b1c7bff	0.0023877618
67	0xbca9db1f	-0.020734368
68	0xbc4d60a8	-0.012535252
69	0xbc542a70	-0.012949571
70	0x3ca1bdfb	0.01974391
71	0xbd204561	-0.039128665
72	0xbc3737fd	-0.011182782
73	0xbcfcc45d	-0.030855352
74	0xbcc76bd9	-0.024343418
75	0xbc8d92fb	-0.017282
76	0xbc279411	-0.010228173
77	0xbcaa84a4	-0.020815201
78	0x3b727765	0.0036997434
79	0x3d21b4f7	0.039479222
80	0xbc2d0b59	-0.0105617875
81	0xbc80ba31	-0.015713783
82	0x3c106f6c	0.008815628
83	0x3baddd97	0.0053059566
84	0xbb990980	-0.004670322
85	0x3d21335f	0.039355632
86	0x3d133157	0.035935726
87	0xbd23fc75	-0.040035684
88	0x3cdd38f4	0.027004696
89	0xbccb81bf	-0.024842141
90	0x3ceac94f	0.028660445
91	0xbd15bacc	-0.036555097
92	0xbcfb8271	-0.030701848
93	0x3c14ee64	0.00909004
94	0xbbf988a3	-0.0076151653
95	0xbbb183cb	-0.0054173223
96	0xbd2250eb	-0.03962795
97	0xbd261db7	-0.040555682
98	0x3cb864c2	0.022508983
99	0x3b6fddf3	0.0036600798
100	0xbcdfe0be	-0.027328845
101	0x3cc4a8e9	0.024006324
102	0xbcc0db7e	-0.023542162
103	0xbcbfc6ee	-0.023410287
104	0x3be58af1	0.0070050885
105	0xbbd2cf6c	-0.006433418
106	0xbd10e95f	-0.03537881
107	0xbbdd2cf3	-0.006749743
108	0xbc0dd633	-0.008657026
109	0xbc3c1486	-0.011479503
110	0xbb619754	-0.0034422474
111	0x3ca3387d	0.019924397
112	0x3d0afeb3	0.033934306
113	0x3c4e4ec9	0.012592026
114	0xbcb3328d	-0.02187469
115	0xbc7c39f1	-0.015394674
116	0xbd0890a7	-0.033341076
117	0xbba1eebf	-0.004941791
118	0x3c9c64f4	0.019091107
119	0xbd2a5499	-0.041584585
120	0x3bdb8383	0.006699027
121	0xbc8aa826	-0.016925883
122	0x3b5e925a	0.0033961744
123	0x3c944a53	0.018101847
124	0x3be90ebc	0.007112352
125	0xbb3b4d83	-0.0028580136
126	0x3cf2c18f	0.029633312
127	0xbc0db337	-0.008648685

fc2.weight f4 [64, 128]
0	0xbd9b2cbe	-0.07576893
1	0x3e218def	0.157768
2	0x3d285217	0.041093912
3	0x3c0a840e	0.008454336
4	0x3d4e2076	0.050323926
5	0x3c46e408	0.012139328
6	0xbc07ca23	-0.008287939
7	0xbd9390ae	-0.0720533
8	0x3d269fe4	0.040679827
9	0x3d937eb5	0.07201902
10	0x3bd966d8	0.0066345744
11	0x3da7d989	0.081957884
12	0xbd9f0520	-0.077646494
13	0x3d8d3533	0.068949126
14	0x3bcba6f8	0.0062149726
15	0x3db4cf73	0.0882863
16	0xba3a3270	-0.00071028527
17	0x3d8ed1c0	0.069736004
18	0x3d5acc1a	0.053417303
19	0x3db0bee3	0.08630159
20	0x3d8ce8e5	0.068803586
21	0xbd3d3683	-0.046194565
22	0x3d63c226	0.055605076
23	0x3d3039cf	0.04302388
24	0xbd8d3b92	-0.06896128
25	0xbdcd61c0	-0.1002841
26	0x3c99363c	0.018702619
27	0x3e03723a	0.12836543
28	0x3d4cbbb2	0.049983688
29	0xbbc9dcb5	-0.0061603435
30	0x3d8dbc15	0.069206394
31	0xbd28997d	-0.041162003
32	0xbe0cae50	-0.1373837
33	0x3e136fc7	0.14398108
34	0xbc35424e	-0.011063172
35	0xbcfe2740	-0.031024575
36	0x3c8af76c	0.016963683
37	0xbd147b64	-0.036250487
38	0xbdd6f9eb	-0.10496887
39	0x3db3c6fc	0.08778188
40	0xbc504ddc	-0.012713876
41	0xbcbb874d	-0.022891665
42	0xbda6e8f7	-0.08149903
43	0x3e36547c	0.17805666
44	0xbbb960dd	-0.005657299
45	0xbd87cbd3	-0.06630673
46	0xbda87eb7	-0.08227294
47	0x3d83c4b7	0.06434005
48	0x3d9d55d5	0.07682387
49	0x3ce2e89e	0.027698811
50	0x3dbbb501	0.09165383
51	0x3d05a68e	0.032629542
52	0x3d6e9526	0.058247708
53	0xbdc0f175	-0.09421054
54	0xbdb7714d	-0.08957157
55	0xbbaaa880	-0.005208075
56	0xbd03b086	-0.032150768
57	0x3d07b76f	0.03313392
58	0x3e01defc	0.12682718
59	0xbca012e8	-0.019540265
60	0x3c8657dc	0.016399316
61	0x3d4f79c1	0.050653223
62	0xbd4e2a73	-0.05033345
63	0xbd50e5a3	-0.05100025
64	0x3d70e6f1	0.058813993
65	0x3d03e239	0.032198165
66	0xbd8b73de	-0.06809209
67	0x3c917fe9	0.017761188
68	0x3d408d20	0.047009587
69	0x3db0e624	0.08637646
70	0x3c8d4f2e	0.01724967
71	0x3cdb3ec7	0.026763333
72	0x3d9b8eaa	0.075955704
73	0xbd12ad08	-0.035809547
74	0x3e3ac808	0.18240368
75	0xbd3f21a4	-0.04666294
76	0x3db3c9d9	0.08778734
77	0x3e02cd92	0.12773731
78	0xbd71ec70	-0.059063375
79	0x3d80657d	0.06269357
80	0xbd926d28	-0.07149726
81	0xbdd3dde9	-0.103450604
82	0x3b6514db	0.0034955058
83	0x3ca5ede5	0.020255039
84	0xbd955b4d	-0.07292805
85	0x3dcde01c	0.10052511
86	0x3d91d9fe	0.07121657
87	0xbd787430	-0.06065768
88	0x3d90cb4f	0.07070028
89	0x3df2da10	0.11857998
90	0x3d6ec150	0.058289826
91	0xbd94dd58	-0.072687805
92	0xbd9c018c	-0.076174825
93	0xbdb1c8de	-0.086808905
94	0xbdf445df	-0.11927389
95	0x3d900107	0.07031446
96	0xbdb73555	-0.08945719
97	0xbd6d894f	-0.057992276
98	0x3dab0075	0.083496965
99	0x3e089b09	0.13340391
100	0x3b397b7a	0.0028302358
101	0x3e09fa08	0.13474286
102	0xbb1a9d94	-0.002359246
103	0xbdc51e00	-0.09624863
104	0x3cd22286	0.025651228
105	0x3dc97da9	0.09838421
106	0xbd846631	-0.06464804
107	0x3e09a1e9	0.1344067
108	0xbe090616	-0.13381228
109	0xbd8809e3	-0.06642511
110	0xbcea4401	-0.02859688
111	0xbdfb8f65	-0.1228321
112	0x3d5b723c	0.05357574
113	0xbd2df19c	-0.042466745
114	0xbe1d0331	-0.15333249
115	0x3e1a3250	0.15058255
116	0xbcbd3219	-0.023095177
117	0xbc95347f	-0.018213509
118	0xbd6654a4	-0.056233063
119	0x3d84f957	0.0649287
120	0xbbd1a720	-0.0063980967
121	0xbd922b44	-0.071371585
122	0xbd0d10ac	-0.034439728
123	0xbc3b227e	-0.011421798
124	0xbcd7099c	-0.0262497
125	0xbda26919	-0.07930202
126	0x3d9116f7	0.07084458
127	0x3bac723f	0.0052626426
128	0xbd2d4d67	-0.042310145
129	0x3c0312f7	0.008000127
130	0xbcef234e	-0.02919164
131	0xbbedea20	-0.007260576
132	0xbdaa7938	-0.08323902
133	0x3da281c3	0.07934906
134	0xbcf86f54	-0.030326523
135	0xbd5e05eb	-0.054204863
136	0x3dbeaff5	0.09310905
137	0x3d20c51f	0.03925049
138	0xbcc230ec	-0.023704968
139	0xbc3fda07	-0.011709697
140	0xbca43360	-0.020044029
141	0xbd65ccf4	-0.05610366
142	0xbd87d9c5	-0.06633333
143	0x3c1c5d19	0.009543681
144	0xbd141493	-0.036152434
145	0xbd5ce8f4	-0.0539331
146	0x3d89e989	0.067339964
147	0xbc1a15ba	-0.009404594
148	0x3d07ae00	0.033124924
149	0xbdb9cac1	-0.09071875
150	0xbdb000bf	-0.08593892
151	0xbd72ed8e	-0.05930858
152	0x3d5d261a	0.053991415
153	0xbd661eed	-0.056181837
154	0xbca9194c	-0.020641945
155	0x3d939b80	0.07207394
156	0x3dd978a8	0.106187165
157	0xbcf5654f	-0.029955534
158	0xbc317416	-0.0108309
159	0x3c91db70	0.017804831
160	0xbddafb6e	-0.10692488
161	0x3db2e72d	0.087354995
162	0x3d87af3c	0.0662522
163	0xbab22740	-0.001359202
164	0xbb5936e5	-0.0033144292
165	0xbd6445cc	-0.055730626
166	0xbd93c6ca	-0.072156504
167	0xbd1dce30	-0.038526714
168	0x3d461955	0.048364002
169	0x3c2e1a53	0.010626393
170	0x3d9fdf81	0.07806302
171	0x3e9d64ab	0.30740866
172	0xbd85db48	-0.06535965
173	0xbcfc33d2	-0.030786429
174	0x3cf8df95	0.03038005
175	0x3d8ad6a4	0.06779221
176	0xbd721528	-0.059102207
177	0xbc28a40a	-0.010293016
178	0xbd28997e	-0.041162007
179	0xbd278c6c	-0.0409054
180	0xbd53922b	-0.05165307
181	0x3d5d2a2a	0.05399529
182	0x3dc8ae53	0.09798875
183	0xbcbf99c8	-0.023388758
184	0x3d02d219	0.031938646
185	0x3e0c1229	0.13678803
186	0x3d8d963e	0.06913422
187	0xbdb195df	-0.08671164
188	0xbc3aef3d	-0.011409578
189	0xbbc4a823	-0.006001489
190	0xbd24c04c	-0.04022245
191	0x3c69663b	0.014245565
192	0x3d2b6abe	0.041849844
193	0x3de080e9	0.10962088
194	0x3daccc45	0.08437399
195	0x3db41e34	0.08794823
196	0xbd94d552	-0.0726725
197	0x3db9e3d8	0.09076661
198	0xbd2d9ac0	-0.04238391
199	0x3d7eb2b2	0.062182136
200	0xbd7747f6	-0.06037136
201	0xbd7bfa4d	-0.061518002
202	0x3e0ceeb7	0.13762937
203	0x3c710f4b	0.014713119
204	0xbc798dd0	-0.015231565
205	0x3d7e5ffd	0.06210326
206	0x3d3f41e7	0.04669371
207	0x3e143219	0.14472236
208	0xbd9823af	-0.07428681
209	0xbdc80aaf	-0.09767663
210	0x3cfb5fe5	0.030685375
211	0xbd8bdd49	-0.06829316
212	0xbd9deccf	-0.07711183
213	0x3dbaddaa	0.0912431
214	0x3d994e96	0.07485692
215	0xbda3c8e8	-0.07997304
216	0xbd3a189a	-0.045433618
217	0x3e093d75	0.1340235
218	0x3d8e8f27	0.06960898
219	0xbc8b986e	-0.017040458
220	0x3d6608ae	0.05616062
221	0xbc1dcb2a	-0.009630958
222	0x3dea793f	0.11448907
223	0x3d849633	0.06473961
224	0x3d95e2b7	0.07318633
225	0xbbf6bdc0	-0.007529944
226	0x3c3cde10	0.011527553
227	0x3d15be19	0.036558244
228	0xbcb03659	-0.02151029
229	0x3d372745	0.044715185
230	0xbcb8464f	-0.022494463
231	0xbd5d1855	-0.053978283
232	0xbda01482	-0.078164116
233	0x3d8f32c2	0.06992103
234	0x3d95b075	0.07309047
235	0x3db7a1d7	0.089664154
236	0xbdc75f44	-0.09734967
237	0xbd81be5d	-0.06335137
238	0xbd5b7335	-0.053576667
239	0xbcbae138	-0.02281247
240	0x3d825aae	0.06364952
241	0x3d52498f	0.051339682
242	0xbe85b5eb	-0.26115355
243	0x3d600ad8	0.05469784
244	0xbd08555d	-0.033284534
245	0xbca46851	-0.020069273
246	0x3d61f9f5	0.05517002
247	0xbd8099ee	-0.0627936
248	0x3d713f51	0.058898274
249	0x3d3f3adc	0.046686992
250	0xbcda9940	-0.026684403
251	0x3d42293d	0.04740261
252	0xbdbff68b	-0.09373196
253	0x3d3d7c9a	0.046261407
254	0xbc99f01a	-0.018791247
255	0x3e06019c	0.13086551

fc2.bias f4 [64]
0	0xbd5bf851	-0.05370361
1	0xbd9de58e	-0.077098
2	0xbcdfcc90	-0.027319223
3	0x3d4556de	0.048178546
4	0xbcf08521	-0.029360356
5	0xbd331d60	-0.043729186
6	0x3ba39d36	0.0049931062
7	0xbdd672df	-0.10471129
8	0x3c31a974	0.010843623
9	0x3d8c9be7	0.068656735
10	0xbd39bca3	-0.045345914
11	0xb9e3658f	-0.0004337248
12	0xbd9b5ae5	-0.07585696
13	0x3baa02f1	0.005188339
14	0x3d047bfd	0.032344807
15	0xbca26c3f	-0.019827006
16	0x3d4d97dc	0.050193653
17	0x3dc271aa	0.09494336
18	0x3da6461d	0.08118842
19	0xbc5a1abe	-0.01331204
20	0x3d838b60	0.06423068
21	0x3da638ba	0.081162885
22	0x3d1f2776	0.038855992
23	0x3ce25da5	0.027632544
24	0xbcabd2d8	-0.020974562
25	0xbd5f827c	-0.0545678
26	0x3d10646e	0.035252027
27	0x3d48cd2e	0.0490238
28	0xbd52d9ff	-0.05147743
29	0x3d5848cd	0.052803803
30	0x3ccbb780	0.024867773
31	0x3d756e34	0.05991955
32	0xbd632ac8	-0.05546072
33	0xbc19c12a	-0.009384433
34	0x3dacf967	0.08446007
35	0xbdaea7b9	-0.08528084
36	0xbd8760a9	-0.06610233
37	0x3d420826	0.047371052
38	0xbd060358	-0.032718033
39	0xbd7729de	-0.060342662
40	0xbbf26e0c	-0.0073983725
41	0x3cf388de	0.02972835
42	0x3d5edba2	0.054408677
43	0x3bddcfb8	0.006769147
44	0x3d5b6176	0.053559743
45	0xbc0e41dc	-0.008682694
46	0x3d958d6d	0.073023655
47	0x3d24fafe	0.040278427
48	0xbda2492d	-0.079241134
49	0x3d6f7eed	0.058470655
50	0xbd699142	-0.057023294
51	0x3d44fd2e	0.048093013
52	0x3d946c5d	0.07247231
53	0xbdbc33db	-0.09189578
54	0x3c7e98b3	0.015539336
55	0x3da049bf	0.07826566
56	0xbc98b16b	-0.018639287
57	0x3c639063	0.013889405
58	0x3ccea575	0.02522538
59	0x3c22a9e1	0.009928198
60	0x3d03cfde	0.03218066
61	0xbd525043	-0.051346075
62	0x3d8a5580	0.06754589
63	0x3de22377	0.11041921

fc3.weight f4 [10, 64]
0	0x3d97ddbe	0.07415341
1	0x3e18f2ed	0.14936419
2	0xbe4ffceb	-0.20311324
3	0x3da5e40d	0.08100138
4	0x3daa4de1	0.083156355
5	0x3de8cf94	0.113677174
6	0x3cb420fb	0.021988383
7	0x3e2f31e1	0.17108871
8	0x3d12dea8	0.035856873
9	0xbd04ad78	-0.032391995
10	0x3d2682da	0.040652134
11	0x3c118f49	0.0088842595
12	0xbd900b3d	-0.070333935
13	0xbd297c93	-0.04137857
14	0x3dd4d067	0.10391312
15	0xbd7b33bf	-0.061328646
16	0x3cdc76b5	0.026912073
17	0x3dafd471	0.08585442
18	0xbde1dfed	-0.110290386
19	0x3d1d3c7f	0.03838777
20	0x3c7dc5ab	0.015489022
21	0xbdc67a54	-0.09691301
22	0xbcdc6f42	-0.02690852
23	0x3cbc028a	0.02295043
24	0x3d75533a	0.059893824
25	0xbc957a25	-0.01824672
26	0xbda255f4	-0.079265505
27	0xbd45da38	-0.048303813
28	0xbd50fbc8	-0.051021367
29	0x3c42597d	0.011862156
30	0x3e02d380	0.12775993
31	0x3d920d6f	0.071314685
32	0xbdbbfeff	-0.09179496
33	0xbcbcdce0	-0.02305454
34	0xbba43d18	-0.0050121658
35	0xbe0fbfc7	-0.14038001
36	0xbdd35873	-0.10319605
37	0xbd9e0242	-0.077152744
38	0x3b190412	0.0023348373
39	0x3e02f9e1	0.12790634
40	0xbe4aab33	-0.1979187
41	0xbda788a0	-0.08180356
42	0xbce48efe	-0.027900215
43	0x3dac9f98	0.084288776
44	0x3dc4e3e0	0.09613776
45	0xbda1cc87	-0.079003386
46	0xbe1dea3a	-0.15421382
47	0xbd76d3a8	-0.060260445
48	0x3df1853e	0.11792992
49	0xbd9f1d92	-0.07769312
50	0xbe087858	-0.13327157
51	0xbe361033	-0.17779617
52	0x3c75582e	0.014974637
53	0x3da3fe25	0.080074586
54	0xbd9375da	-0.07200213
55	0xbe48f875	-0.19626029
56	0xbe4a62a4	-0.19764191
57	0xbe912325	-0.28347126
58	0x3e07f6e2	0.13277772
59	0x3e30eebb	0.17278568
60	0x3d38a6ae	0.045080833
61	0x3d90d420	0.0707171
62	0x3c556b83	0.013026121
63	0xbdb3d0cb	-0.087800585
64	0xbd582104	-0.05276586
65	0xbda61032	-0.08108558
66	0x3e07e221	0.13269855
67	0xbdc4ee1e	-0.0961573
68	0xbdb4032e	-0.08789669
69	0xbd577d3c	-0.052609667
70	0x3dbc69b6	0.0919985
71	0x3ce4a72a	0.027911741
72	0xbdd95758	-0.106123626
73	0xbcd05589	-0.025431411
74	0x3d55b20f	0.052171763
75	0x3e20eb2e	0.15714714
76	0xbda2f253	-0.07956376
77	0x3d07d19b	0.03315888
78	0x3b59ca5b	0.0033232186
79	0xbe8d745e	-0.27627844
80	0x3de2e26b	0.11078342
81	0xbe83f2dd	-0.25771227
82	0xbd9707c0	-0.07374525
83	0xbd7326a1	-0.05936301
84	0xbe2b4296	-0.1672462
85	0xbbc5eb38	-0.006040003
86	0xbccfc5fd	-0.025362963
87	0xbe7a3f66	-0.24438247
88	0xbd376af1	-0.04477972
89	0x3ce144f1	0.027498694
90	0xbd9e35b9	-0.077250905
91	0x3e08d631	0.13362958
92	0xbdb056f2	-0.086103335
93	0x3e2eac3a	0.17057887
94	0xbdb159d8	-0.086597145
95	0x3d17b8ff	0.03704166
96	0x3d20b484	0.039234653
97	0x3cb8a23f	0.022538302
98	0xbe24ac33	-0.16081314
99	0xbdf45a92	-0.119313374
100	0x3d373a42	0.044733293
101	0x3d089b0c	0.03335099
102	0x3c3c9a70	0.01151143
103	0xbd08be0c	-0.033384368
104	0x3d786a7d	0.06064843
105	0x3e524215	0.20533021
106	0x3dcaa603	0.098949455
107	0xbe19137a	-0.14948836
108	0xbd07dbac	-0.03316848
109	0xbc84edd9	-0.016226696
110	0x3baa7fb5	0.005203212
111	0x3e0be835	0.13662799
112	0xbb532e51	-0.0032223652
113	0xbe079330	-0.13239741
114	0x3c6808a4	0.014162216
115	0x3e20467a	0.15651885
116	0xbd314464	-0.043278113
117	0x3de6ba83	0.11266043
118	0xbde36181	-0.11102582
119	0xbb2b675b	-0.0026154134
120	0xb95c2679	-0.00020995167
121	0x3e2efc9e	0.17088553
122	0xbe65485b	-0.22390883
123	0x3bb4f539	0.005522397
124	0x3d90feb6	0.07079832
125	0xbdb1ae43	-0.08675816
126	0xbda74d69	-0.08169062
127	0xbdcfbc25	-0.101433076
128	0x3db19fd3	0.08673062
129	0x3dadbfa7	0.084838204
130	0x3e17afa8	0.14813101
131	0xbe01d676	-0.12679467
132	0xbe235b15	-0.15952714
133	0x3d5a889c	0.053352937
134	0xbdd8bf5b	-0.10583373
135	0xbd038547	-0.032109525
136	0x3d48f3c8	0.049060613
137	0x3e1b7a5c	0.15183395
138	0xbdeca875	-0.11555568
139	0x3da67b0a	0.081289366
140	0x3dd0bad5	0.101918854
141	0xbca60e4a	-0.020270485
142	0xbe0dc540	-0.13844776
143	0xbb19dde0	-0.0023478195
144	0xbd180891	-0.037117545
145	0xbd6ff5db	-0.058584075
146	0x3c839fde	0.016067442
147	0xbbb34576	-0.005470927
148	0xbdb18182	-0.0866728
149	0xbda06a27	-0.07832747
150	0xbe1f7772	-0.15572909
151	0xbe269110	-0.16266274
152	0x3d1e1a14	0.03859909
153	0xbddfce1e	-0.109279856
154	0x3e152eec	0.1456868
155	0x3e24f9d0	0.16110921
156	0xbde46828	-0.11152679
157	0xbd363276	-0.044481717
158	0x3d001327	0.031268265
159	0xbd868d07	-0.065698676
160	0x3c8072ed	0.0156798
161	0x3d74ccfe	0.05976581
162	0x3e11665b	0.14199202
163	0xbdf8489e	-0.12123226
164	0x3d671e3d	0.05642532
165	0x3de0e94c	0.10981998
166	0xbcd9c655	-0.02658383
167	0xbceb43ff	-0.028718947
168	0xbe5d45ae	-0.21608612
169	0x3c0aa7fe	0.008462904
170	0x3c29a1f1	0.010353551
171	0xbd54a883	-0.051918518
172	0x3dc4ae06	0.09603505
173	0x3d3d00a7	0.0461432
174	0xbe331f3a	-0.1749238
175	0xbdec15ed	-0.115276195
176	0xbe132023	-0.14367728
177	0x3cf0e1ab	0.029404482
178	0xbe5d5c7b	-0.2161731
179	0x3e1aebfc	0.15129083
180	0xbe10762b	-0.14107578
181	0xbd10730a	-0.03526596
182	0x3d9414d2	0.07230534
183	0x3d5dcd12	0.05415065
184	0x3df7f24d	0.12106762
185	0xbe1f1faf	-0.1553943
186	0x3d1129cc	0.03544025
187	0xbe22cbff	-0.15898131
188	0x3e07701a	0.13226357
189	0xbcc0cb31	-0.02353439
190	0x3d17bc67	0.03704491
191	0xbc9abbd8	-0.018888399
192	0xbd879182	-0.0661955
193	0x3dbdd24b	0.09268626
194	0xbd69e11e	-0.057099454
195	0x3d684cac	0.056713745
196	0xbe032600	-0.12807465
197	0x3df9215e	0.121645674
198	0xbd924f6a	-0.07144053
199	0xbe239364	-0.15974194
200	0xbda35758	-0.07975644
201	0xbe314c59	-0.1731428
202	0xbca3e8c7	-0.020008458
203	0xbdfe5691	-0.12418855
204	0x3d60f7db	0.054923873
205	0x3d96d3d0	0.07364619
206	0x3df716a7	0.120648675
207	0xbe6324aa	-0.22181955
208	0xbde49e5f	-0.111630194
209	0xbbbe5af3	-0.005809182
210	0xbd8ff99a	-0.070300296
211	0xbd116f2d	-0.035506416
212	0x3e202561	0.15639259
213	0x3bd0e99d	0.006375505
214	0x3c09783f	0.008390485
215	0xbe207d7b	-0.15672867
216	0x3ac35d1b	0.0014905067
217	0xbd833bd2	-0.06407894
218	0x3dc4a96b	0.096026264
219	0x3e0dbe1d	0.13842054
220	0x3dc5c34d	0.09656391
221	0x3e3ed4ba	0.18635836
222	0xbe217771	-0.1576822
223	0xbadfce9a	-0.0017075122
224	0xbd8193fc	-0.06327054
225	0xbdcaa9e6	-0.09895687
226	0xbbdce53d	-0.0067411945
227	0x3cb5e4b5	0.022203783
228	0xbe3ac49f	-0.18239067
229	0x3dc0cec8	0.094144404
230	0x3dde7d5f	0.108637564
231	0xbcbe971c	-0.023265414
232	0x3dc4945c	0.0959861
233	0x3e0ec984	0.1394406
234	0x3b024948	0.0019880105
235	0x3da65d64	0.081232816
236	0x3ca73040	0.02040875
237	0xbdac4133	-0.08410873
238	0xbca0e238	-0.01963912
239	0x3c9538e7	0.01821561
240	0xbdd0b436	-0.101906225
241	0x3df0cf62	0.11758305
242	0x3c89be6a	0.01681443
243	0xbde50100	-0.11181831
244	0x3d4e8637	0.050420966
245	0x3c00d571	0.007863388
246	0x3d8cfcf2	0.06884183
247	0xbc9a9758	-0.018870994
248	0x3d2ee3db	0.04269777
249	0xbcbbf7b3	-0.02294526
250	0xbcd67f4c	-0.026183747
251	0x3aa34202	0.0012455585
252	0xbe199ec2	-0.15001968
253	0xbda49dd7	-0.08037918
254	0x3e104bce	0.14091417
255	0x3ddcefb6	0.10787909

fc3.bias f4 [10]
0	0xbdfca901	-0.123369224
1	0xbd81d4ae	-0.063393936
2	0x3cd138b1	0.025539728
3	0x3d44060d	0.047857333
4	0xbdafb439	-0.085792966
5	0x3d2d5026	0.042312764
6	0x3dbacc28	0.09120971
7	0xbe062caf	-0.13102983
8	0xbd2d736a	-0.042346396
9	0x3daa37c5	0.083114184
